…
<plantdisease.utils.plant_disease_class.PlantsClass object at 0x7efc6e2d9250>
2023-10-05 11:07:35.268 | INFO     | plantdisease.utils.trainers.trainer:before_train:65 - ----------------------------------------------------------------
2023-10-05 11:07:35.269 | INFO     | plantdisease.utils.trainers.trainer:before_train:65 -         Layer (type)               Output Shape         Param #
2023-10-05 11:07:35.270 | INFO     | plantdisease.utils.trainers.trainer:before_train:65 - ================================================================
2023-10-05 11:07:35.272 | INFO     | plantdisease.utils.trainers.trainer:before_train:65 -             Conv2d-1         [-1, 64, 224, 224]           1,792
2023-10-05 11:07:35.274 | INFO     | plantdisease.utils.trainers.trainer:before_train:65 -        BatchNorm2d-2         [-1, 64, 224, 224]             128
2023-10-05 11:07:35.275 | INFO     | plantdisease.utils.trainers.trainer:before_train:65 -               ReLU-3         [-1, 64, 224, 224]               0
2023-10-05 11:07:35.277 | INFO     | plantdisease.utils.trainers.trainer:before_train:65 -             Conv2d-4        [-1, 128, 224, 224]          73,856
2023-10-05 11:07:35.278 | INFO     | plantdisease.utils.trainers.trainer:before_train:65 -        BatchNorm2d-5        [-1, 128, 224, 224]             256
2023-10-05 11:07:35.279 | INFO     | plantdisease.utils.trainers.trainer:before_train:65 -               ReLU-6        [-1, 128, 224, 224]               0
2023-10-05 11:07:35.280 | INFO     | plantdisease.utils.trainers.trainer:before_train:65 -          MaxPool2d-7        [-1, 128, 112, 112]               0
2023-10-05 11:07:35.281 | INFO     | plantdisease.utils.trainers.trainer:before_train:65 -             Conv2d-8        [-1, 128, 112, 112]         147,584
2023-10-05 11:07:35.283 | INFO     | plantdisease.utils.trainers.trainer:before_train:65 -        BatchNorm2d-9        [-1, 128, 112, 112]             256
2023-10-05 11:07:35.284 | INFO     | plantdisease.utils.trainers.trainer:before_train:65 -              ReLU-10        [-1, 128, 112, 112]               0
2023-10-05 11:07:35.286 | INFO     | plantdisease.utils.trainers.trainer:before_train:65 -            Conv2d-11        [-1, 128, 112, 112]         147,584
2023-10-05 11:07:35.287 | INFO     | plantdisease.utils.trainers.trainer:before_train:65 -       BatchNorm2d-12        [-1, 128, 112, 112]             256
2023-10-05 11:07:35.288 | INFO     | plantdisease.utils.trainers.trainer:before_train:65 -              ReLU-13        [-1, 128, 112, 112]               0
2023-10-05 11:07:35.290 | INFO     | plantdisease.utils.trainers.trainer:before_train:65 -            Conv2d-14        [-1, 256, 112, 112]         590,080
2023-10-05 11:07:35.291 | INFO     | plantdisease.utils.trainers.trainer:before_train:65 -       BatchNorm2d-15        [-1, 256, 112, 112]             512
2023-10-05 11:07:35.291 | INFO     | plantdisease.utils.trainers.trainer:before_train:65 -              ReLU-16        [-1, 256, 112, 112]               0
2023-10-05 11:07:35.292 | INFO     | plantdisease.utils.trainers.trainer:before_train:65 -         MaxPool2d-17          [-1, 256, 56, 56]               0
2023-10-05 11:07:35.294 | INFO     | plantdisease.utils.trainers.trainer:before_train:65 -            Conv2d-18          [-1, 512, 56, 56]       1,180,160
2023-10-05 11:07:35.295 | INFO     | plantdisease.utils.trainers.trainer:before_train:65 -       BatchNorm2d-19          [-1, 512, 56, 56]           1,024
2023-10-05 11:07:35.297 | INFO     | plantdisease.utils.trainers.trainer:before_train:65 -              ReLU-20          [-1, 512, 56, 56]               0
2023-10-05 11:07:35.299 | INFO     | plantdisease.utils.trainers.trainer:before_train:65 -         MaxPool2d-21          [-1, 512, 28, 28]               0
2023-10-05 11:07:35.301 | INFO     | plantdisease.utils.trainers.trainer:before_train:65 -            Conv2d-22          [-1, 512, 28, 28]       2,359,808
2023-10-05 11:07:35.303 | INFO     | plantdisease.utils.trainers.trainer:before_train:65 -       BatchNorm2d-23          [-1, 512, 28, 28]           1,024
2023-10-05 11:07:35.305 | INFO     | plantdisease.utils.trainers.trainer:before_train:65 -              ReLU-24          [-1, 512, 28, 28]               0
2023-10-05 11:07:35.307 | INFO     | plantdisease.utils.trainers.trainer:before_train:65 -            Conv2d-25          [-1, 512, 28, 28]       2,359,808
2023-10-05 11:07:35.309 | INFO     | plantdisease.utils.trainers.trainer:before_train:65 -       BatchNorm2d-26          [-1, 512, 28, 28]           1,024
2023-10-05 11:07:35.310 | INFO     | plantdisease.utils.trainers.trainer:before_train:65 -              ReLU-27          [-1, 512, 28, 28]               0
2023-10-05 11:07:35.312 | INFO     | plantdisease.utils.trainers.trainer:before_train:65 -         MaxPool2d-28           [-1, 1024, 1, 1]               0
2023-10-05 11:07:35.313 | INFO     | plantdisease.utils.trainers.trainer:before_train:65 -           Flatten-29                 [-1, 1024]               0
2023-10-05 11:07:35.316 | INFO     | plantdisease.utils.trainers.trainer:before_train:65 -            Linear-30                   [-1, 39]          39,975
2023-10-05 11:07:35.318 | INFO     | plantdisease.utils.trainers.trainer:before_train:65 - ================================================================
2023-10-05 11:07:35.319 | INFO     | plantdisease.utils.trainers.trainer:before_train:65 - Total params: 6,905,127
2023-10-05 11:07:35.321 | INFO     | plantdisease.utils.trainers.trainer:before_train:65 - Trainable params: 6,905,127
2023-10-05 11:07:35.323 | INFO     | plantdisease.utils.trainers.trainer:before_train:65 - Non-trainable params: 0
…
