…
<plantdisease.utils.plant_disease_class.PlantsClass object at 0x7f326539b2b0>
2023-10-05 10:06:19.211 | INFO     | plantdisease.utils.trainers.trainer:before_train:63 - ----------------------------------------------------------------
2023-10-05 10:06:19.212 | INFO     | plantdisease.utils.trainers.trainer:before_train:63 -         Layer (type)               Output Shape         Param #
2023-10-05 10:06:19.214 | INFO     | plantdisease.utils.trainers.trainer:before_train:63 - ================================================================
2023-10-05 10:06:19.216 | INFO     | plantdisease.utils.trainers.trainer:before_train:63 -             Conv2d-1         [-1, 64, 224, 224]           1,792
2023-10-05 10:06:19.217 | INFO     | plantdisease.utils.trainers.trainer:before_train:63 -        BatchNorm2d-2         [-1, 64, 224, 224]             128
2023-10-05 10:06:19.220 | INFO     | plantdisease.utils.trainers.trainer:before_train:63 -               ReLU-3         [-1, 64, 224, 224]               0
2023-10-05 10:06:19.222 | INFO     | plantdisease.utils.trainers.trainer:before_train:63 -             Conv2d-4        [-1, 128, 224, 224]          73,856
2023-10-05 10:06:19.224 | INFO     | plantdisease.utils.trainers.trainer:before_train:63 -        BatchNorm2d-5        [-1, 128, 224, 224]             256
2023-10-05 10:06:19.226 | INFO     | plantdisease.utils.trainers.trainer:before_train:63 -               ReLU-6        [-1, 128, 224, 224]               0
2023-10-05 10:06:19.228 | INFO     | plantdisease.utils.trainers.trainer:before_train:63 -          MaxPool2d-7        [-1, 128, 112, 112]               0
2023-10-05 10:06:19.229 | INFO     | plantdisease.utils.trainers.trainer:before_train:63 -             Conv2d-8        [-1, 128, 112, 112]         147,584
2023-10-05 10:06:19.231 | INFO     | plantdisease.utils.trainers.trainer:before_train:63 -        BatchNorm2d-9        [-1, 128, 112, 112]             256
2023-10-05 10:06:19.233 | INFO     | plantdisease.utils.trainers.trainer:before_train:63 -              ReLU-10        [-1, 128, 112, 112]               0
2023-10-05 10:06:19.235 | INFO     | plantdisease.utils.trainers.trainer:before_train:63 -            Conv2d-11        [-1, 128, 112, 112]         147,584
2023-10-05 10:06:19.236 | INFO     | plantdisease.utils.trainers.trainer:before_train:63 -       BatchNorm2d-12        [-1, 128, 112, 112]             256
2023-10-05 10:06:19.238 | INFO     | plantdisease.utils.trainers.trainer:before_train:63 -              ReLU-13        [-1, 128, 112, 112]               0
2023-10-05 10:06:19.239 | INFO     | plantdisease.utils.trainers.trainer:before_train:63 -            Conv2d-14        [-1, 256, 112, 112]         590,080
2023-10-05 10:06:19.241 | INFO     | plantdisease.utils.trainers.trainer:before_train:63 -       BatchNorm2d-15        [-1, 256, 112, 112]             512
2023-10-05 10:06:19.242 | INFO     | plantdisease.utils.trainers.trainer:before_train:63 -              ReLU-16        [-1, 256, 112, 112]               0
2023-10-05 10:06:19.244 | INFO     | plantdisease.utils.trainers.trainer:before_train:63 -         MaxPool2d-17          [-1, 256, 56, 56]               0
2023-10-05 10:06:19.245 | INFO     | plantdisease.utils.trainers.trainer:before_train:63 -            Conv2d-18          [-1, 512, 56, 56]       1,180,160
2023-10-05 10:06:19.247 | INFO     | plantdisease.utils.trainers.trainer:before_train:63 -       BatchNorm2d-19          [-1, 512, 56, 56]           1,024
2023-10-05 10:06:19.249 | INFO     | plantdisease.utils.trainers.trainer:before_train:63 -              ReLU-20          [-1, 512, 56, 56]               0
2023-10-05 10:06:19.250 | INFO     | plantdisease.utils.trainers.trainer:before_train:63 -         MaxPool2d-21          [-1, 512, 28, 28]               0
2023-10-05 10:06:19.252 | INFO     | plantdisease.utils.trainers.trainer:before_train:63 -            Conv2d-22          [-1, 512, 28, 28]       2,359,808
2023-10-05 10:06:19.254 | INFO     | plantdisease.utils.trainers.trainer:before_train:63 -       BatchNorm2d-23          [-1, 512, 28, 28]           1,024
2023-10-05 10:06:19.256 | INFO     | plantdisease.utils.trainers.trainer:before_train:63 -              ReLU-24          [-1, 512, 28, 28]               0
2023-10-05 10:06:19.258 | INFO     | plantdisease.utils.trainers.trainer:before_train:63 -            Conv2d-25          [-1, 512, 28, 28]       2,359,808
2023-10-05 10:06:19.260 | INFO     | plantdisease.utils.trainers.trainer:before_train:63 -       BatchNorm2d-26          [-1, 512, 28, 28]           1,024
2023-10-05 10:06:19.261 | INFO     | plantdisease.utils.trainers.trainer:before_train:63 -              ReLU-27          [-1, 512, 28, 28]               0
2023-10-05 10:06:19.263 | INFO     | plantdisease.utils.trainers.trainer:before_train:63 -         MaxPool2d-28           [-1, 1024, 1, 1]               0
2023-10-05 10:06:19.264 | INFO     | plantdisease.utils.trainers.trainer:before_train:63 -           Flatten-29                 [-1, 1024]               0
2023-10-05 10:06:19.266 | INFO     | plantdisease.utils.trainers.trainer:before_train:63 -            Linear-30                   [-1, 39]          39,975
2023-10-05 10:06:19.268 | INFO     | plantdisease.utils.trainers.trainer:before_train:63 - ================================================================
2023-10-05 10:06:19.269 | INFO     | plantdisease.utils.trainers.trainer:before_train:63 - Total params: 6,905,127
2023-10-05 10:06:19.270 | INFO     | plantdisease.utils.trainers.trainer:before_train:63 - Trainable params: 6,905,127
2023-10-05 10:06:19.272 | INFO     | plantdisease.utils.trainers.trainer:before_train:63 - Non-trainable params: 0
…
